…
im': 0, 'weight': 1}}, 'bottom': {'bc': True, 'type': 'htc', 'params': {'dim': 2, 'k': 0.2, 'direction': -1, 'weight': 1}}, 'top': {'bc': True, 'type': 'htc', 'params': {'dim': 2, 'k': 0.2, 'direction': 1, 'weight': 1}}, 'node': {'root': True, 'leaf': True}, 'parameterized': {'variable': True, 'param_space': {'top': {'k': {'param_range': (0.1, 0.3), 'type': 'continuous'}}, 'bottom': {'k': {'param_range': (0.1, 0.3), 'type': 'continuous'}}}}}
The model used for this case: MIONet(
  (branch): BranchNetList(
    (net_list): ModuleList(
      (0): FCBlock(
        (net): Sequential(
          (fc1): Linear(in_features=1, out_features=20, bias=True)
          (nl1): SiLU()
          (fc2): Linear(in_features=20, out_features=20, bias=True)
          (nl2): SiLU()
          (fc3): Linear(in_features=20, out_features=20, bias=True)
          (nl3): SiLU()
          (fc4): Linear(in_features=20, out_features=20, bias=True)
          (nl4): SiLU()
          (fc5): Linear(in_features=20, out_features=50, bias=True)
        )
      )
      (1): FCBlock(
        (net): Sequential(
          (fc1): Linear(in_features=1, out_features=20, bias=True)
          (nl1): SiLU()
          (fc2): Linear(in_features=20, out_features=20, bias=True)
          (nl2): SiLU()
          (fc3): Linear(in_features=20, out_features=20, bias=True)
          (nl3): SiLU()
          (fc4): Linear(in_features=20, out_features=20, bias=True)
          (nl4): SiLU()
          (fc5): Linear(in_features=20, out_features=50, bias=True)
        )
      )
    )
  )
  (trunk): FCBlock(
    (net): Sequential(
      (fc1): Linear(in_features=128, out_features=128, bias=True)
      (nl1): SiLU()
      (fc2): Linear(in_features=128, out_features=128, bias=True)
      (nl2): SiLU()
      (fc3): Linear(in_features=128, out_features=128, bias=True)
      (nl3): SiLU()
      (fc4): Linear(in_features=128, out_features=128, bias=True)
      (nl4): SiLU()
      (fc5): Linear(in_features=128, out_features=50, bias=True)
    )
  )
)
epoch: 0 {'pde': tensor(126.7772, device='cuda:2', grad_fn=<AddBackward0>), 'htc': tensor(465.9414, device='cuda:2', grad_fn=<AddBackward0>), 'adiabatics': tensor(40.6894, device='cuda:2', grad_fn=<AddBackward0>), 'volumetric_power': tensor(682.3456, device='cuda:2', grad_fn=<AddBackward0>), 'surface_power': 0, 'neumann': 0, 'dirichelet': 0, 'total_loss': tensor(65.7877, device='cuda:2', grad_fn=<DivBackward0>)}
…
