…
{'bc': True, 'type': 'adiabatics', 'params': {'dim': 0, 'weight': 1}}, 'right': {'bc': True, 'type': 'adiabatics', 'params': {'dim': 0, 'weight': 1}}, 'bottom': {'bc': True, 'type': 'htc', 'params': {'dim': 2, 'k': 0.2, 'direction': -1, 'weight': 1}}, 'top': {'bc': True, 'type': 'htc', 'params': {'dim': 2, 'k': 0.2, 'direction': 1, 'weight': 1}}, 'node': {'root': True, 'leaf': True}, 'parameterized': {'variable': True, 'param_space': {'top': {'k': {'param_range': (0.1, 0.3), 'type': 'continuous'}}}}}
The model used for this case: DeepONet(
  (branch): FCBlock(
    (net): Sequential(
      (fc1): Linear(in_features=1, out_features=20, bias=True)
      (nl1): SiLU()
      (fc2): Linear(in_features=20, out_features=20, bias=True)
      (nl2): SiLU()
      (fc3): Linear(in_features=20, out_features=20, bias=True)
      (nl3): SiLU()
      (fc4): Linear(in_features=20, out_features=20, bias=True)
      (nl4): SiLU()
      (fc5): Linear(in_features=20, out_features=50, bias=True)
    )
  )
  (trunk): FCBlock(
    (net): Sequential(
      (fc1): Linear(in_features=128, out_features=128, bias=True)
      (nl1): SiLU()
      (fc2): Linear(in_features=128, out_features=128, bias=True)
      (nl2): SiLU()
      (fc3): Linear(in_features=128, out_features=128, bias=True)
      (nl3): SiLU()
      (fc4): Linear(in_features=128, out_features=128, bias=True)
      (nl4): SiLU()
      (fc5): Linear(in_features=128, out_features=50, bias=True)
    )
  )
)
epoch: 0 {'pde': tensor(1166.0165, device='cuda:1', grad_fn=<AddBackward0>), 'htc': tensor(222.9265, device='cuda:1', grad_fn=<AddBackward0>), 'adiabatics': tensor(466.5630, device='cuda:1', grad_fn=<AddBackward0>), 'volumetric_power': tensor(757.2653, device='cuda:1', grad_fn=<AddBackward0>), 'surface_power': 0, 'neumann': 0, 'dirichelet': 0, 'total_loss': tensor(130.6386, device='cuda:1', grad_fn=<DivBackward0>)}
…
